37 - Hand Gesture Recognition/model/keypoint_classifier/keypoint_classifier.tflite (tflite, 6496 bytes, 6 tensors)

dense_2/bias f4 [6]
000000 73 9b 57 be 85 a8 8b be 38 1b 30 bd 0e 6c d7 3c
       -0.21055393 -0.27277008 -0.042994708 0.026296642
000010 2d f5 b6 3e 0e 78 85 3e
       0.3573393 0.26068157

dense_1/bias f4 [10]
000000 f8 03 ab 3e 15 d2 0f 3f af 79 07 3f 74 1d 0e 3f
       0.33401465 0.56179935 0.5292005 0.5551369
000010 1f c4 20 be d4 09 16 be 91 c7 9d 3d a1 cf 9a 3e
       -0.15699814 -0.14652187 0.0770408 0.30236533
000020 c5 5a 75 bd 73 5b 63 be
       -0.059901018 -0.22202854

dense/bias f4 [20]
000000 28 b4 1a be 7f 9d d4 bc 6d f7 d1 bc 3b 26 c0 be
       -0.15107787 -0.025954006 -0.025630677 -0.37529168
000010 56 ec 93 bd a3 65 f7 3d 0e 47 54 be da 02 92 3e
       -0.07222812 0.120799325 -0.2073023 0.285178
000020 b3 97 29 3e 3b 65 e1 bd 77 f0 4d 3e 92 04 65 3e
       0.16561775 -0.11005636 0.20111261 0.22365025
000030 5b b7 4d 3e e6 9a 7b bd f6 60 bb bd 99 39 ac be
       0.20089476 -0.06142702 -0.09149353 -0.33637694
000040 5a 52 91 be 73 17 16 3e f6 72 8e 3e 34 95 91 be
       -0.28383142 0.14657383 0.27822083 -0.28434145

sequential/dense/MatMul f4 [20, 42]
000000 e4 88 f5 3d 6e c7 f7 bd b0 f2 94 3e 3a 16 a3 3c
       0.119890004 -0.12098585 0.29091406 0.01990806
000010 d7 c5 1e 3f 7f 7a d8 bd b1 b6 57 3f 24 3a f7 3b
       0.6202063 -0.10570239 0.8426314 0.0075447727
000020 53 1e 8c 3f ba 1f 9f bd 55 d3 39 3f 31 e5 10 bc
       1.0946754 -0.07769723 0.7258809 -0.008843706
000030 c3 e6 03 3f f8 35 56 bd a7 eb 4c be 44 48 4c bd
       0.5152399 -0.052297562 -0.20011769 -0.049873605
000040 e2 34 80 be 99 9f c8 bd 4d cf 3c 3f ad fe 25 3e
       -0.25040346 -0.09796066 0.73753816 0.16210432
000050 a8 1a b4 be 9d a7 f6 3d 07 b5 b5 bd ab f0 c4 3d
       -0.35176587 0.120436884 -0.08872419 0.09616216
000060 72 99 32 3f cb d3 b8 3d 42 37 cb 3e 3e da 18 3e
       0.6976539 0.09024771 0.39690596 0.14927003
000070 17 aa dc be 86 44 ec 3d 6c e9 13 be 6a bc f6 3d
       -0.43098518 0.11536507 -0.14444512 0.12047656
000080 2a d4 9e be ba 53 10 bc 85 af ce bd 30 35 ae 3e
       -0.31021243 -0.0088090245 -0.100920714 0.34024954
000090 a4 a1 a4 be 58 97 a2 3d e7 4a 0f bf c9 fc fa 3d
       -0.32154572 0.07939023 -0.55973667 0.12255246
0000a0 ec 72 1c bf 94 05 44 3e 28 d9 3c 3e a8 a9 8a 3e
       -0.61112857 0.19142753 0.18442214 0.27082562
0000b0 fc e4 6e 3d 5c 91 22 bf 5f 52 86 3e 28 40 b1 be
       0.058323845 -0.6350305 0.2623472 -0.3461926
0000c0 78 49 d6 3d 5b dd 9f be 72 89 df 3b d3 bc e8 bd
       0.10463232 -0.31223568 0.0068218047 -0.1136414
0000d0 f8 d5 5f be 4f 33 aa 3d e8 37 43 3e 32 38 4c 3d
       -0.21858966 0.083105676 0.19064295 0.04985828
0000e0 aa 9e be 3d 28 88 f9 be bb 73 8b bd 38 b7 ea be
       0.093076065 -0.4873669 -0.06809183 -0.4584291
0000f0 62 c3 f0 bd 12 75 86 3e 90 93 1b be c9 27 1e bd
       -0.11756016 0.26261193 -0.1519301 -0.03861216
000100 26 f7 cc be 74 fd 28 3e 19 99 63 3d f8 6b 2e 3e
       -0.4003231 0.16502935 0.055565927 0.17033374
000110 8f c2 67 bc e4 54 a7 3e ae e7 4c bd c5 67 86 bd
       -0.0141455075 0.32681954 -0.050025634 -0.06562761
000120 4c 21 eb 3c 08 0d 0d 3e b4 9f 4e 3e 31 3c 0d 3e
       0.0287024 0.13774502 0.2017811 0.13792492
000130 6d 84 ea 3d 9c 0e 32 3f 4f bf e5 bd ce 07 4c 3e
       0.114510395 0.6955354 -0.1121813 0.19924852
000140 7c a6 1d bd 4c 22 3f 3e 23 22 19 3e 71 2a bd 3e
       -0.03848885 0.18665427 0.14954428 0.36946443
000150 d0 2d 02 3e 79 0f 8e be 5b 8f 6e 3e f3 a7 df 3e
       0.12712789 -0.2774618 0.23296873 0.43682823
000160 67 a2 22 bc e2 7a f8 3e a1 62 a1 3b 32 a2 c2 3e
       -0.009926415 0.48531252 0.0049250876 0.3801437
000170 cc a4 ba bd 60 b2 90 3e b5 a4 5b bd 51 6c 80 3e
       -0.09113464 0.2826109 -0.053623874 0.2508264
000180 71 db 82 3e c2 3d cd 3d ab 76 fc 3d 33 db c4 3d
       0.25558046 0.10021545 0.123273216 0.096121214
000190 90 84 c0 bd fa 90 ff 3c f2 c5 96 3d fb 60 43 be
       -0.09400284 0.03119706 0.07361974 -0.19079964
0001a0 eb 70 cd 3e 2d ef 27 be 6b 59 9a 3e 7e 27 1b be
       0.40125212 -0.16399832 0.30146345 -0.15151784
0001b0 68 11 82 be dd ed 01 bf e6 40 29 be f3 c7 b9 be
       -0.25403905 -0.50753576 -0.16528663 -0.36285362
0001c0 ed 9a a5 3d 79 10 ea bd 47 fd ad bb 40 b2 44 3b
       0.080861904 -0.11428923 -0.005309734 0.0030013472
0001d0 3d 44 c5 bd 82 8c 1a be 99 58 1d be dc be 15 bf
       -0.09632156 -0.15092662 -0.15365829 -0.58494353
0001e0 00 8f 0f bd 4a 6a 8b bd 8c 5d d4 3d 95 b1 7a be
       -0.035048485 -0.068073824 0.10369405 -0.24481805
0001f0 9d b0 6e be 67 8c b8 be 94 de 2c be 00 b4 9c b9
       -0.2330956 -0.36044618 -0.16881782 -0.0002988875
000200 56 cc 10 bf 6d 32 93 3e b8 7d aa be 44 6d 98 3e
       -0.5656179 0.2874941 -0.3329904 0.29770863
000210 6f f5 09 bf 13 d5 0d 3e 1e 9b 79 bf f1 61 5b 3e
       -0.53890127 0.13850813 -0.97502315 0.2142408
000220 b7 d3 be be 79 b3 61 bd cd cb 82 be 25 b5 a8 bd
       -0.372709 -0.0551028 -0.25546113 -0.082376756
000230 e5 7b 71 be 81 c9 fe bd 10 57 5f bb ae 49 a9 be
       -0.23582418 -0.124407776 -0.0034078993 -0.33064026
000240 5b 55 c6 be 72 03 0e be 62 f2 2e be 9a f8 3d 3e
       -0.38736996 -0.13868502 -0.17084649 0.18551865
000250 4e c2 57 bd 9d 77 64 3e b6 44 96 3c a5 87 2b 3e
       -0.052675538 0.22311254 0.01834331 0.16750963
000260 27 ac 33 bf 17 09 aa 3b 96 c7 a8 3c f4 66 24 3d
       -0.7018456 0.005189072 0.020602982 0.040137246
000270 d1 60 00 3f dd 4b e0 3c 8b c9 97 3e 42 b7 31 bd
       0.5014773 0.027379924 0.29645953 -0.04338766
000280 42 b2 98 bd 97 fd e1 bc 51 9c 88 3e 60 95 39 3e
       -0.07455875 -0.027586741 0.2668176 0.18123388
000290 56 47 9f 3e 4e 27 78 3d ef 66 5b 3e e9 c5 07 be
       0.31109113 0.06058436 0.21425985 -0.1325909
0002a0 9a 4b 3e 3e d4 c8 01 be e5 8b 00 be 59 e2 78 3c
       0.18583527 -0.12674266 -0.12553366 0.015190684
0002b0 f0 c1 12 bd b3 90 0a 3e b5 7e 98 be ad 64 ee 3d
       -0.035829484 0.13531761 -0.2978417 0.11640296
0002c0 ef d5 b6 be 5b ac 4a 3e c2 03 7f 3d d0 61 9e 3e
       -0.35710093 0.19792311 0.062259443 0.30934
0002d0 cb cd e4 3d d4 89 63 3e 21 5d d9 3c f4 98 d9 3e
       0.111720644 0.22220546 0.026533665 0.42499506
0002e0 51 89 0c be 51 bf be 3e 56 e3 96 3e f6 71 5f 3e
       -0.13724257 0.37255338 0.2947032 0.21820816
0002f0 2c d5 a3 3e 37 34 ce 3d 07 d8 f4 bd 34 ad 62 be
       0.31998575 0.10068553 -0.119552664 -0.22136384
000300 f0 62 fc 3d 38 cf de be 97 28 0f 3d ff f7 1d bd
       0.12323558 -0.4351747 0.03495082 -0.038566586
000310 fe fe 9f bd 94 cd 1b be 9e ae ad bc f2 d7 05 bf
       -0.07812308 -0.1521514 -0.021201428 -0.5228263
000320 28 79 cc be 39 ae 50 bf 89 27 34 be a5 a0 89 bd
       -0.39936185 -0.8151584 -0.17593206 -0.06720094
000330 12 77 12 bd 35 53 48 be ac a8 86 bd 62 0c 0d bf
       -0.035758086 -0.19562991 -0.0657514 -0.5509702
000340 24 cf f1 bd db 06 0c bf b0 47 51 3d 14 f3 82 bd
       -0.11807087 -0.5469796 0.051093757 -0.0639402
000350 85 8d 6e be a6 bd 23 bf f4 8a 6a be 5a 09 67 bf
       -0.23296173 -0.63961256 -0.22904569 -0.90248644
000360 48 b9 18 be 22 07 04 bf 9e 83 32 bd 84 ef 2d bf
       -0.14914429 -0.51573384 -0.04358255 -0.67943597
000370 d7 cd 3a be 73 4c 6e 3e 6a 2e 2a bd 6f eb 80 3d
       -0.18242584 0.2327135 -0.04154817 0.062949054
000380 5f 87 77 3d ab 78 30 3d 81 3d 3a 3e 88 0a 30 bc
       0.060431834 0.043083828 0.18187524 -0.010744698
000390 09 4f 07 be 12 42 4d 3e 12 af 45 be 4d e7 ec bd
       -0.13213743 0.20044735 -0.19305065 -0.115675546
0003a0 2f 79 a0 3e 3f c8 f0 3d 91 31 c2 3e e1 20 34 3e
       0.31342456 0.11756944 0.3792844 0.17590667
0003b0 1e 86 9c 3c 04 29 e7 3e 2d 03 3b be ba d9 69 3c
       0.01910692 0.4514848 -0.1826293 0.014273101
0003c0 f5 02 be bc e4 28 13 3e 18 72 2e 3e f0 62 bb 3d
       -0.02319477 0.14371067 0.17035711 0.0914973
0003d0 2c bb 52 bd 2f 22 c2 3e bc e0 97 bd 26 fd b6 bd
       -0.051448032 0.37916705 -0.074159116 -0.08935003
0003e0 31 27 ad bd 99 99 e8 3d 9c 7a 5e be bd be e4 3d
       -0.08454741 0.113574214 -0.2172646 0.11169193
0003f0 c0 aa b9 bc 4c 7a 7b 3e 90 73 4e bd 5b 9f 61 3f
       -0.022664428 0.24558371 -0.050403178 0.8813378

sequential/dense_1/MatMul f4 [10, 20]
000000 6c f3 3e bd 2f 64 d2 be 1e 7f 9e 3d 1f 83 1a 3e
       -0.046618864 -0.4109206 0.077390894 0.15089081
000010 01 35 19 3f bd 0b 1b 3f 7a 8c 61 3e ec 1e 9d 3d
       0.598465 0.60564786 0.22026244 0.076719135
000020 41 02 64 be 7a 3f 0e be 69 29 8e 3e 4f 35 88 bc
       -0.22266485 -0.13891402 0.27765968 -0.016626982
000030 c2 53 8a 3a 8c ff 3d 3f 30 dc ba 3e b4 aa 5a be
       0.0010553526 0.7421806 0.36496115 -0.2135418
000040 a2 de 82 bf d2 c7 83 3c 08 51 a1 be 85 b9 04 3f
       -1.0224192 0.016086493 -0.31507134 0.5184558
000050 3b 59 3b be e3 af 6e 3f f2 a4 23 3f cf 80 19 be
       -0.18295757 0.9323713 0.6392356 -0.14990543
000060 20 93 3a 3f 84 42 f2 3e db 69 37 3f 77 eb 1a 3f
       0.72880745 0.47316372 0.716459 0.6051554
000070 19 71 43 3e ec fa 43 3e 79 aa e6 be f3 29 1a be
       0.19086112 0.19138688 -0.45051935 -0.15055065
000080 24 31 5a 3e c1 3b 0e bf 7c 09 a3 3e ed 0c 4b 3f
       0.21307808 -0.5555993 0.31843174 0.793166
000090 63 e3 9f 3e 27 cc 3f 3f 1b 04 9c be 40 ae a8 3c
       0.3122817 0.74920887 -0.30471882 0.020590901
0000a0 b9 04 71 bf 0c 52 1f 3d e3 bb a5 3e a0 fa 30 bf
       -0.9414783 0.038896605 0.3236991 -0.69132423
0000b0 5d 4b 51 3d e6 60 8a 3e e7 48 49 3e 42 4a cf 3e
       0.051097263 0.27027053 0.19656716 0.40486342
0000c0 dd 05 3f 3f 9f 58 32 bf 92 a2 0f 3f 06 6b ff 3d
       0.7461832 -0.69666475 0.5610744 0.12471585
0000d0 54 6e b9 3e 17 f5 ce bc 88 8a 83 3e c0 ac 09 be
       0.36216986 -0.025263352 0.25691628 -0.13444805
0000e0 d4 a0 38 be 65 b0 d8 3e 98 57 8a 3e ad 9d 47 be
       -0.18030101 0.42322078 0.27019954 -0.19493742
0000f0 07 a3 02 be 9f 25 c4 be eb 2a f1 3e 26 51 d2 3d
       -0.12757502 -0.38309953 0.47103056 0.10269384
000100 05 7c 0c 3f 6d 34 73 3d cc b1 52 3e ff 0c 04 be
       0.5487674 0.05937617 0.20575637 -0.12895583
000110 e5 0d 92 bd 56 fb d3 be 44 1f 72 be 53 3b 2e bf
       -0.071315564 -0.41402692 -0.2364474 -0.6805927
000120 04 b3 1a 3e 9b 83 12 bb a1 ed 38 be 76 81 57 bc
       0.15107352 -0.0022356275 -0.18059398 -0.0131534245
000130 9c 5e 94 3e 60 71 56 3e 2b c2 17 bf 0e 06 57 3e
       0.2897843 0.20941687 -0.5928065 0.20998403
000140 e1 be 50 3e ac c1 ac 3d e7 2d fa bc 9b a3 4d 3e
       0.20385315 0.084353775 -0.030539466 0.20081942
000150 0e 23 86 be d0 38 82 be 6f 98 36 be cc 73 c1 3e
       -0.2619862 -0.2543397 -0.17831586 0.37783659
000160 2f db 9e 3e f1 5c 9a be ee 65 6e 3f fd a7 17 3e
       0.310266 -0.30149034 0.9312428 0.14810176
000170 0a 02 03 bf 1c 59 0a 3e 2a 13 83 bd 8f 99 92 be
       -0.51174986 0.13510555 -0.0640014 -0.2863278
000180 cc 2a 03 3d bd 19 0b be e6 bc ce 3e 8a 20 c5 3e
       0.032023236 -0.13584037 0.40378493 0.38501388
000190 f4 87 82 3f e7 8c a5 be 50 78 9a 3e 36 3b c1 3e
       1.019774 -0.32334062 0.30169916 0.37740487
0001a0 9f 5a 8f 3e c3 15 4e be 7e 8d 9c 3e 75 dc 1c bf
       0.27998826 -0.20125489 0.305767 -0.6127389
0001b0 e6 f6 48 3a 3a 32 08 3f c6 3b 56 be f1 52 d0 3e
       0.0007666185 0.5320164 -0.2092124 0.4068828
0001c0 1b 14 0b bf 3d 70 8f 3e 30 b5 be 3e 78 e8 b1 3e
       -0.54327554 0.2801532 0.3724761 0.34747672
0001d0 cd 66 de 3d e7 d2 9d be 2b 19 b4 3e e8 56 6c 3f
       0.108594514 -0.30824968 0.35175452 0.9232011
0001e0 6e 3f 36 3f 75 bd 6d 3f b1 40 ab be d2 23 a5 3e
       0.71190536 0.92867213 -0.33447793 0.3225389
0001f0 ca 30 b0 3d 81 8b 7a 3f c6 27 50 bf 03 c0 ee 3e
       0.08603056 0.97869116 -0.8131069 0.46630868
000200 72 29 30 be 5d e4 fe 3e ed b8 8d 3f 48 e5 35 3f
       -0.1720331 0.49783602 1.107206 0.7105298
000210 f4 cc 2b 3f ad 3a 3a 3f 34 1a 5a 3e 65 9b a0 be
       0.6710961 0.7274578 0.21299058 -0.31368557
000220 bd bc 42 be 3c bc 08 3f e9 59 7f 3e d9 9a 90 be
       -0.1901731 0.5341222 0.24936642 -0.2824314
000230 21 98 87 3e 51 ff 17 be 81 20 c3 3e 8c 5f 1a 3f
       0.26483253 -0.14843489 0.38110736 0.6030204
000240 99 ea 41 bf 15 fd dd 3c a5 61 ca 3e 9b 88 32 be
       -0.7574859 0.027098218 0.39527622 -0.17434923
000250 2a 71 ca 3d ed 1c 8d be 03 84 6d 3d 49 04 0e 3f
       0.098848656 -0.2756113 0.057987224 0.5547529
000260 d4 07 fa bd 24 54 f8 3e 2d 01 87 3e 07 40 a4 be
       -0.12208524 0.48501694 0.26368085 -0.320801
000270 3d 6f 4b bf 79 3e 28 3d f7 05 4a 3f 36 5a e0 3e
       -0.7946661 0.041075204 0.7891535 0.43818825
000280 17 0c 36 3e c3 a8 8f be 4c 4a 12 3f 52 86 d2 3e
       0.1777805 -0.28058442 0.5714462 0.41118103
000290 ec fe c8 3e 58 c4 f3 be 2c 19 fa 3e 7e 1a 9b be
       0.3925699 -0.47610736 0.4884733 -0.3029365
0002a0 77 eb 04 3e 59 b6 2d be 16 d0 f8 3c 43 f3 e4 3e
       0.12980448 -0.16964091 0.03037266 0.44716844
0002b0 23 c0 4b be d6 9f 26 be 01 b2 d4 3e 63 5c b2 3e
       -0.19897513 -0.1627191 0.41542056 0.3483611
0002c0 0f e7 f1 3c a4 f4 ab be 6d 40 0c 3f d0 8e 9b be
       0.029529123 -0.33585083 0.54785806 -0.30382395
0002d0 bd 98 c1 3e 57 cb 01 3f 1a dd 83 bd dc 13 1b 3f
       0.37811843 0.50700897 -0.06438656 0.6057718
0002e0 ed 4a 31 bc 14 95 da 3d c0 e2 73 3e 73 68 ac bd
       -0.010821086 0.10672966 0.23816967 -0.084183596
0002f0 7a 44 ff 3e 81 1c 97 3e 6b 5c 25 3d b2 85 b9 3e
       0.4985693 0.29513934 0.04037134 0.36234814
000300 83 f9 a3 3d 09 e1 70 3e 5f 6f 9a be 9f 01 07 3f
       0.08006575 0.23523344 -0.30163094 0.5273685
000310 d9 19 79 3f 29 cc 01 3f f9 80 1f 3f 5a 07 a6 3e
       0.97305065 0.5070215 0.6230617 0.32427484

sequential/dense_2/MatMul f4 [6, 10]
000000 00 19 a6 be 41 28 80 3e 4a d8 70 bf a8 ce 16 3f
       -0.32440948 0.2503071 -0.9408003 0.5890908
000010 af 0c 36 bf 8b 74 1f 3f 9d 13 fa be 7f cf 09 bd
       -0.71113104 0.62287205 -0.4884309 -0.03364515
000020 a2 84 fb 3d 98 c7 4a 3f e2 cc 4e be d4 e0 81 bf
       0.12281157 0.79210806 -0.20195344 -1.0146737
000030 fb 40 a3 3e 38 84 87 bf 91 c3 2a 3f f1 7d fc 3e
       0.31885514 -1.0587225 0.6670466 0.49314836
000040 5b 54 e1 bd 27 5f 41 3f 8c 07 f3 3e f0 54 cf 3e
       -0.11002418 0.75535816 0.47466695 0.4049449
000050 08 9f a2 be e3 dd 6e 3e 44 0e f9 bd 4d ee 61 bf
       -0.31761956 0.2332683 -0.12160924 -0.88254243
000060 8b 20 9d 3e c8 1b 5f be 5a 2e 98 3f 26 34 2d bf
       0.3068889 -0.21787941 1.1889145 -0.676577
000070 14 06 2b bf fd c0 c8 3e e8 ee 2e 3f 4b 8a 8d 3e
       -0.6680615 0.39209738 0.6833329 0.27644572
000080 f1 30 5b bf 68 3c 8d 3d 5f fb 17 bf b1 42 f9 3e
       -0.85621554 0.06896287 -0.59367937 0.48683694
000090 55 ce c6 be b4 b1 e6 3e 67 ab 05 3e 82 29 13 bf
       -0.38829294 0.45057452 0.13053666 -0.5748521
0000a0 8d 4f 91 bf 2c 63 46 3f 52 f1 4a 3f 3b a5 42 3e
       -1.1352402 0.77495074 0.79274476 0.19008343
0000b0 ae fb 2b bf 3d 9b 83 bf 8f 9d b2 be 16 6d 4e bf
       -0.6718091 -1.028175 -0.34885833 -0.806352
0000c0 88 f1 c6 bd d1 29 42 3e 61 50 15 3f e9 23 05 3e
       -0.09714037 0.18961264 0.58325773 0.1300198
0000d0 a2 83 4f 3f 4a f1 da 3e 8f 1d b6 bd d3 77 4f bf
       0.8106023 0.42762214 -0.088923566 -0.8104221
0000e0 56 99 84 3d dd 27 c6 bb a3 a7 db be 71 ed 89 bf
       0.06474559 -0.0060472325 -0.42901334 -1.0775586
